{"backend": "tensorflow", "config": {"layers": [{"name": "input_1", "config": {"dtype": "float32", "sparse": false, "batch_input_shape": [null, 101, 80, 1], "name": "input_1"}, "class_name": "InputLayer", "inbound_nodes": []}, {"name": "conv2d_1", "config": {"bias_constraint": null, "kernel_initializer": {"config": {"distribution": "uniform", "scale": 1.0, "mode": "fan_avg", "seed": null}, "class_name": "VarianceScaling"}, "filters": 45, "name": "conv2d_1", "bias_initializer": {"config": {}, "class_name": "Zeros"}, "kernel_size": [3, 3], "data_format": "channels_last", "dilation_rate": [1, 1], "use_bias": false, "trainable": true, "activation": "linear", "strides": [1, 1], "kernel_regularizer": null, "bias_regularizer": null, "padding": "same", "kernel_constraint": null, "activity_regularizer": null}, "class_name": "Conv2D", "inbound_nodes": [[["input_1", 0, 0, {}]]]}, {"name": "conv2d_2", "config": {"bias_constraint": null, "kernel_initializer": {"config": {"distribution": "uniform", "scale": 1.0, "mode": "fan_avg", "seed": null}, "class_name": "VarianceScaling"}, "filters": 45, "name": "conv2d_2", "bias_initializer": {"config": {}, "class_name": "Zeros"}, "kernel_size": [3, 3], "data_format": "channels_last", "dilation_rate": [1, 1], "use_bias": false, "trainable": true, "activation": "linear", "strides": [1, 1], "kernel_regularizer": null, "bias_regularizer": null, "padding": "same", "kernel_constraint": null, "activity_regularizer": null}, "class_name": "Conv2D", "inbound_nodes": [[["conv2d_1", 0, 0, {}]]]}, {"name": "activation_1", "config": {"activation": "relu", "trainable": true, "name": "activation_1"}, "class_name": "Activation", "inbound_nodes": [[["conv2d_2", 0, 0, {}]]]}, {"name": "batch_normalization_1", "config": {"axis": -1, "scale": false, "name": "batch_normalization_1", "beta_initializer": {"config": {}, "class_name": "Zeros"}, "moving_mean_initializer": {"config": {}, "class_name": "Zeros"}, "epsilon": 0.001, "gamma_initializer": {"config": {}, "class_name": "Ones"}, "trainable": true, "gamma_regularizer": null, "beta_constraint": null, "gamma_constraint": null, "center": false, "beta_regularizer": null, "moving_variance_initializer": {"config": {}, "class_name": "Ones"}, "momentum": 0.99}, "class_name": "BatchNormalization", "inbound_nodes": [[["activation_1", 0, 0, {}]]]}, {"name": "conv2d_3", "config": {"bias_constraint": null, "kernel_initializer": {"config": {"distribution": "uniform", "scale": 1.0, "mode": "fan_avg", "seed": null}, "class_name": "VarianceScaling"}, "filters": 45, "name": "conv2d_3", "bias_initializer": {"config": {}, "class_name": "Zeros"}, "kernel_size": [3, 3], "data_format": "channels_last", "dilation_rate": [1, 1], "use_bias": false, "trainable": true, "activation": "linear", "strides": [1, 1], "kernel_regularizer": null, "bias_regularizer": null, "padding": "same", "kernel_constraint": null, "activity_regularizer": null}, "class_name": "Conv2D", "inbound_nodes": [[["batch_normalization_1", 0, 0, {}]]]}, {"name": "activation_2", "config": {"activation": "relu", "trainable": true, "name": "activation_2"}, "class_name": "Activation", "inbound_nodes": [[["conv2d_3", 0, 0, {}]]]}, {"name": "batch_normalization_2", "config": {"axis": -1, "scale": false, "name": "batch_normalization_2", "beta_initializer": {"config": {}, "class_name": "Zeros"}, "moving_mean_initializer": {"config": {}, "class_name": "Zeros"}, "epsilon": 0.001, "gamma_initializer": {"config": {}, "class_name": "Ones"}, "trainable": true, "gamma_regularizer": null, "beta_constraint": null, "gamma_constraint": null, "center": false, "beta_regularizer": null, "moving_variance_initializer": {"config": {}, "class_name": "Ones"}, "momentum": 0.99}, "class_name": "BatchNormalization", "inbound_nodes": [[["activation_2", 0, 0, {}]]]}, {"name": "add_1", "config": {"trainable": true, "name": "add_1"}, "class_name": "Add", "inbound_nodes": [[["batch_normalization_2", 0, 0, {}], ["conv2d_1", 0, 0, {}]]]}, {"name": "conv2d_4", "config": {"bias_constraint": null, "kernel_initializer": {"config": {"distribution": "uniform", "scale": 1.0, "mode": "fan_avg", "seed": null}, "class_name": "VarianceScaling"}, "filters": 45, "name": "conv2d_4", "bias_initializer": {"config": {}, "class_name": "Zeros"}, "kernel_size": [3, 3], "data_format": "channels_last", "dilation_rate": [1, 1], "use_bias": false, "trainable": true, "activation": "linear", "strides": [1, 1], "kernel_regularizer": null, "bias_regularizer": null, "padding": "same", "kernel_constraint": null, "activity_regularizer": null}, "class_name": "Conv2D", "inbound_nodes": [[["add_1", 0, 0, {}]]]}, {"name": "activation_3", "config": {"activation": "relu", "trainable": true, "name": "activation_3"}, "class_name": "Activation", "inbound_nodes": [[["conv2d_4", 0, 0, {}]]]}, {"name": "batch_normalization_3", "config": {"axis": -1, "scale": false, "name": "batch_normalization_3", "beta_initializer": {"config": {}, "class_name": "Zeros"}, "moving_mean_initializer": {"config": {}, "class_name": "Zeros"}, "epsilon": 0.001, "gamma_initializer": {"config": {}, "class_name": "Ones"}, "trainable": true, "gamma_regularizer": null, "beta_constraint": null, "gamma_constraint": null, "center": false, "beta_regularizer": null, "moving_variance_initializer": {"config": {}, "class_name": "Ones"}, "momentum": 0.99}, "class_name": "BatchNormalization", "inbound_nodes": [[["activation_3", 0, 0, {}]]]}, {"name": "conv2d_5", "config": {"bias_constraint": null, "kernel_initializer": {"config": {"distribution": "uniform", "scale": 1.0, "mode": "fan_avg", "seed": null}, "class_name": "VarianceScaling"}, "filters": 45, "name": "conv2d_5", "bias_initializer": {"config": {}, "class_name": "Zeros"}, "kernel_size": [3, 3], "data_format": "channels_last", "dilation_rate": [2, 2], "use_bias": false, "trainable": true, "activation": "linear", "strides": [1, 1], "kernel_regularizer": null, "bias_regularizer": null, "padding": "same", "kernel_constraint": null, "activity_regularizer": null}, "class_name": "Conv2D", "inbound_nodes": [[["batch_normalization_3", 0, 0, {}]]]}, {"name": "activation_4", "config": {"activation": "relu", "trainable": true, "name": "activation_4"}, "class_name": "Activation", "inbound_nodes": [[["conv2d_5", 0, 0, {}]]]}, {"name": "batch_normalization_4", "config": {"axis": -1, "scale": false, "name": "batch_normalization_4", "beta_initializer": {"config": {}, "class_name": "Zeros"}, "moving_mean_initializer": {"config": {}, "class_name": "Zeros"}, "epsilon": 0.001, "gamma_initializer": {"config": {}, "class_name": "Ones"}, "trainable": true, "gamma_regularizer": null, "beta_constraint": null, "gamma_constraint": null, "center": false, "beta_regularizer": null, "moving_variance_initializer": {"config": {}, "class_name": "Ones"}, "momentum": 0.99}, "class_name": "BatchNormalization", "inbound_nodes": [[["activation_4", 0, 0, {}]]]}, {"name": "add_2", "config": {"trainable": true, "name": "add_2"}, "class_name": "Add", "inbound_nodes": [[["batch_normalization_4", 0, 0, {}], ["add_1", 0, 0, {}]]]}, {"name": "conv2d_6", "config": {"bias_constraint": null, "kernel_initializer": {"config": {"distribution": "uniform", "scale": 1.0, "mode": "fan_avg", "seed": null}, "class_name": "VarianceScaling"}, "filters": 45, "name": "conv2d_6", "bias_initializer": {"config": {}, "class_name": "Zeros"}, "kernel_size": [3, 3], "data_format": "channels_last", "dilation_rate": [2, 2], "use_bias": false, "trainable": true, "activation": "linear", "strides": [1, 1], "kernel_regularizer": null, "bias_regularizer": null, "padding": "same", "kernel_constraint": null, "activity_regularizer": null}, "class_name": "Conv2D", "inbound_nodes": [[["add_2", 0, 0, {}]]]}, {"name": "activation_5", "config": {"activation": "relu", "trainable": true, "name": "activation_5"}, "class_name": "Activation", "inbound_nodes": [[["conv2d_6", 0, 0, {}]]]}, {"name": "batch_normalization_5", "config": {"axis": -1, "scale": false, "name": "batch_normalization_5", "beta_initializer": {"config": {}, "class_name": "Zeros"}, "moving_mean_initializer": {"config": {}, "class_name": "Zeros"}, "epsilon": 0.001, "gamma_initializer": {"config": {}, "class_name": "Ones"}, "trainable": true, "gamma_regularizer": null, "beta_constraint": null, "gamma_constraint": null, "center": false, "beta_regularizer": null, "moving_variance_initializer": {"config": {}, "class_name": "Ones"}, "momentum": 0.99}, "class_name": "BatchNormalization", "inbound_nodes": [[["activation_5", 0, 0, {}]]]}, {"name": "conv2d_7", "config": {"bias_constraint": null, "kernel_initializer": {"config": {"distribution": "uniform", "scale": 1.0, "mode": "fan_avg", "seed": null}, "class_name": "VarianceScaling"}, "filters": 45, "name": "conv2d_7", "bias_initializer": {"config": {}, "class_name": "Zeros"}, "kernel_size": [3, 3], "data_format": "channels_last", "dilation_rate": [2, 2], "use_bias": false, "trainable": true, "activation": "linear", "strides": [1, 1], "kernel_regularizer": null, "bias_regularizer": null, "padding": "same", "kernel_constraint": null, "activity_regularizer": null}, "class_name": "Conv2D", "inbound_nodes": [[["batch_normalization_5", 0, 0, {}]]]}, {"name": "activation_6", "config": {"activation": "relu", "trainable": true, "name": "activation_6"}, "class_name": "Activation", "inbound_nodes": [[["conv2d_7", 0, 0, {}]]]}, {"name": "batch_normalization_6", "config": {"axis": -1, "scale": false, "name": "batch_normalization_6", "beta_initializer": {"config": {}, "class_name": "Zeros"}, "moving_mean_initializer": {"config": {}, "class_name": "Zeros"}, "epsilon": 0.001, "gamma_initializer": {"config": {}, "class_name": "Ones"}, "trainable": true, "gamma_regularizer": null, "beta_constraint": null, "gamma_constraint": null, "center": false, "beta_regularizer": null, "moving_variance_initializer": {"config": {}, "class_name": "Ones"}, "momentum": 0.99}, "class_name": "BatchNormalization", "inbound_nodes": [[["activation_6", 0, 0, {}]]]}, {"name": "add_3", "config": {"trainable": true, "name": "add_3"}, "class_name": "Add", "inbound_nodes": [[["batch_normalization_6", 0, 0, {}], ["add_2", 0, 0, {}]]]}, {"name": "conv2d_8", "config": {"bias_constraint": null, "kernel_initializer": {"config": {"distribution": "uniform", "scale": 1.0, "mode": "fan_avg", "seed": null}, "class_name": "VarianceScaling"}, "filters": 45, "name": "conv2d_8", "bias_initializer": {"config": {}, "class_name": "Zeros"}, "kernel_size": [3, 3], "data_format": "channels_last", "dilation_rate": [4, 4], "use_bias": false, "trainable": true, "activation": "linear", "strides": [1, 1], "kernel_regularizer": null, "bias_regularizer": null, "padding": "same", "kernel_constraint": null, "activity_regularizer": null}, "class_name": "Conv2D", "inbound_nodes": [[["add_3", 0, 0, {}]]]}, {"name": "activation_7", "config": {"activation": "relu", "trainable": true, "name": "activation_7"}, "class_name": "Activation", "inbound_nodes": [[["conv2d_8", 0, 0, {}]]]}, {"name": "batch_normalization_7", "config": {"axis": -1, "scale": false, "name": "batch_normalization_7", "beta_initializer": {"config": {}, "class_name": "Zeros"}, "moving_mean_initializer": {"config": {}, "class_name": "Zeros"}, "epsilon": 0.001, "gamma_initializer": {"config": {}, "class_name": "Ones"}, "trainable": true, "gamma_regularizer": null, "beta_constraint": null, "gamma_constraint": null, "center": false, "beta_regularizer": null, "moving_variance_initializer": {"config": {}, "class_name": "Ones"}, "momentum": 0.99}, "class_name": "BatchNormalization", "inbound_nodes": [[["activation_7", 0, 0, {}]]]}, {"name": "conv2d_9", "config": {"bias_constraint": null, "kernel_initializer": {"config": {"distribution": "uniform", "scale": 1.0, "mode": "fan_avg", "seed": null}, "class_name": "VarianceScaling"}, "filters": 45, "name": "conv2d_9", "bias_initializer": {"config": {}, "class_name": "Zeros"}, "kernel_size": [3, 3], "data_format": "channels_last", "dilation_rate": [4, 4], "use_bias": false, "trainable": true, "activation": "linear", "strides": [1, 1], "kernel_regularizer": null, "bias_regularizer": null, "padding": "same", "kernel_constraint": null, "activity_regularizer": null}, "class_name": "Conv2D", "inbound_nodes": [[["batch_normalization_7", 0, 0, {}]]]}, {"name": "activation_8", "config": {"activation": "relu", "trainable": true, "name": "activation_8"}, "class_name": "Activation", "inbound_nodes": [[["conv2d_9", 0, 0, {}]]]}, {"name": "batch_normalization_8", "config": {"axis": -1, "scale": false, "name": "batch_normalization_8", "beta_initializer": {"config": {}, "class_name": "Zeros"}, "moving_mean_initializer": {"config": {}, "class_name": "Zeros"}, "epsilon": 0.001, "gamma_initializer": {"config": {}, "class_name": "Ones"}, "trainable": true, "gamma_regularizer": null, "beta_constraint": null, "gamma_constraint": null, "center": false, "beta_regularizer": null, "moving_variance_initializer": {"config": {}, "class_name": "Ones"}, "momentum": 0.99}, "class_name": "BatchNormalization", "inbound_nodes": [[["activation_8", 0, 0, {}]]]}, {"name": "add_4", "config": {"trainable": true, "name": "add_4"}, "class_name": "Add", "inbound_nodes": [[["batch_normalization_8", 0, 0, {}], ["add_3", 0, 0, {}]]]}, {"name": "conv2d_10", "config": {"bias_constraint": null, "kernel_initializer": {"config": {"distribution": "uniform", "scale": 1.0, "mode": "fan_avg", "seed": null}, "class_name": "VarianceScaling"}, "filters": 45, "name": "conv2d_10", "bias_initializer": {"config": {}, "class_name": "Zeros"}, "kernel_size": [3, 3], "data_format": "channels_last", "dilation_rate": [4, 4], "use_bias": false, "trainable": true, "activation": "linear", "strides": [1, 1], "kernel_regularizer": null, "bias_regularizer": null, "padding": "same", "kernel_constraint": null, "activity_regularizer": null}, "class_name": "Conv2D", "inbound_nodes": [[["add_4", 0, 0, {}]]]}, {"name": "activation_9", "config": {"activation": "relu", "trainable": true, "name": "activation_9"}, "class_name": "Activation", "inbound_nodes": [[["conv2d_10", 0, 0, {}]]]}, {"name": "batch_normalization_9", "config": {"axis": -1, "scale": false, "name": "batch_normalization_9", "beta_initializer": {"config": {}, "class_name": "Zeros"}, "moving_mean_initializer": {"config": {}, "class_name": "Zeros"}, "epsilon": 0.001, "gamma_initializer": {"config": {}, "class_name": "Ones"}, "trainable": true, "gamma_regularizer": null, "beta_constraint": null, "gamma_constraint": null, "center": false, "beta_regularizer": null, "moving_variance_initializer": {"config": {}, "class_name": "Ones"}, "momentum": 0.99}, "class_name": "BatchNormalization", "inbound_nodes": [[["activation_9", 0, 0, {}]]]}, {"name": "conv2d_11", "config": {"bias_constraint": null, "kernel_initializer": {"config": {"distribution": "uniform", "scale": 1.0, "mode": "fan_avg", "seed": null}, "class_name": "VarianceScaling"}, "filters": 45, "name": "conv2d_11", "bias_initializer": {"config": {}, "class_name": "Zeros"}, "kernel_size": [3, 3], "data_format": "channels_last", "dilation_rate": [8, 8], "use_bias": false, "trainable": true, "activation": "linear", "strides": [1, 1], "kernel_regularizer": null, "bias_regularizer": null, "padding": "same", "kernel_constraint": null, "activity_regularizer": null}, "class_name": "Conv2D", "inbound_nodes": [[["batch_normalization_9", 0, 0, {}]]]}, {"name": "activation_10", "config": {"activation": "relu", "trainable": true, "name": "activation_10"}, "class_name": "Activation", "inbound_nodes": [[["conv2d_11", 0, 0, {}]]]}, {"name": "batch_normalization_10", "config": {"axis": -1, "scale": false, "name": "batch_normalization_10", "beta_initializer": {"config": {}, "class_name": "Zeros"}, "moving_mean_initializer": {"config": {}, "class_name": "Zeros"}, "epsilon": 0.001, "gamma_initializer": {"config": {}, "class_name": "Ones"}, "trainable": true, "gamma_regularizer": null, "beta_constraint": null, "gamma_constraint": null, "center": false, "beta_regularizer": null, "moving_variance_initializer": {"config": {}, "class_name": "Ones"}, "momentum": 0.99}, "class_name": "BatchNormalization", "inbound_nodes": [[["activation_10", 0, 0, {}]]]}, {"name": "add_5", "config": {"trainable": true, "name": "add_5"}, "class_name": "Add", "inbound_nodes": [[["batch_normalization_10", 0, 0, {}], ["add_4", 0, 0, {}]]]}, {"name": "conv2d_12", "config": {"bias_constraint": null, "kernel_initializer": {"config": {"distribution": "uniform", "scale": 1.0, "mode": "fan_avg", "seed": null}, "class_name": "VarianceScaling"}, "filters": 45, "name": "conv2d_12", "bias_initializer": {"config": {}, "class_name": "Zeros"}, "kernel_size": [3, 3], "data_format": "channels_last", "dilation_rate": [8, 8], "use_bias": false, "trainable": true, "activation": "linear", "strides": [1, 1], "kernel_regularizer": null, "bias_regularizer": null, "padding": "same", "kernel_constraint": null, "activity_regularizer": null}, "class_name": "Conv2D", "inbound_nodes": [[["add_5", 0, 0, {}]]]}, {"name": "conv2d_14", "config": {"bias_constraint": null, "kernel_initializer": {"config": {"distribution": "uniform", "scale": 1.0, "mode": "fan_avg", "seed": null}, "class_name": "VarianceScaling"}, "filters": 45, "name": "conv2d_14", "bias_initializer": {"config": {}, "class_name": "Zeros"}, "kernel_size": [3, 3], "data_format": "channels_last", "dilation_rate": [8, 8], "use_bias": false, "trainable": true, "activation": "linear", "strides": [1, 1], "kernel_regularizer": null, "bias_regularizer": null, "padding": "same", "kernel_constraint": null, "activity_regularizer": null}, "class_name": "Conv2D", "inbound_nodes": [[["add_5", 0, 0, {}]]]}, {"name": "activation_11", "config": {"activation": "relu", "trainable": true, "name": "activation_11"}, "class_name": "Activation", "inbound_nodes": [[["conv2d_12", 0, 0, {}]]]}, {"name": "activation_13", "config": {"activation": "relu", "trainable": true, "name": "activation_13"}, "class_name": "Activation", "inbound_nodes": [[["conv2d_14", 0, 0, {}]]]}, {"name": "batch_normalization_11", "config": {"axis": -1, "scale": false, "name": "batch_normalization_11", "beta_initializer": {"config": {}, "class_name": "Zeros"}, "moving_mean_initializer": {"config": {}, "class_name": "Zeros"}, "epsilon": 0.001, "gamma_initializer": {"config": {}, "class_name": "Ones"}, "trainable": true, "gamma_regularizer": null, "beta_constraint": null, "gamma_constraint": null, "center": false, "beta_regularizer": null, "moving_variance_initializer": {"config": {}, "class_name": "Ones"}, "momentum": 0.99}, "class_name": "BatchNormalization", "inbound_nodes": [[["activation_11", 0, 0, {}]]]}, {"name": "batch_normalization_13", "config": {"axis": -1, "scale": false, "name": "batch_normalization_13", "beta_initializer": {"config": {}, "class_name": "Zeros"}, "moving_mean_initializer": {"config": {}, "class_name": "Zeros"}, "epsilon": 0.001, "gamma_initializer": {"config": {}, "class_name": "Ones"}, "trainable": true, "gamma_regularizer": null, "beta_constraint": null, "gamma_constraint": null, "center": false, "beta_regularizer": null, "moving_variance_initializer": {"config": {}, "class_name": "Ones"}, "momentum": 0.99}, "class_name": "BatchNormalization", "inbound_nodes": [[["activation_13", 0, 0, {}]]]}, {"name": "conv2d_13", "config": {"bias_constraint": null, "kernel_initializer": {"config": {"distribution": "uniform", "scale": 1.0, "mode": "fan_avg", "seed": null}, "class_name": "VarianceScaling"}, "filters": 45, "name": "conv2d_13", "bias_initializer": {"config": {}, "class_name": "Zeros"}, "kernel_size": [3, 3], "data_format": "channels_last", "dilation_rate": [8, 8], "use_bias": false, "trainable": true, "activation": "linear", "strides": [1, 1], "kernel_regularizer": null, "bias_regularizer": null, "padding": "same", "kernel_constraint": null, "activity_regularizer": null}, "class_name": "Conv2D", "inbound_nodes": [[["batch_normalization_11", 0, 0, {}]]]}, {"name": "conv2d_15", "config": {"bias_constraint": null, "kernel_initializer": {"config": {"distribution": "uniform", "scale": 1.0, "mode": "fan_avg", "seed": null}, "class_name": "VarianceScaling"}, "filters": 45, "name": "conv2d_15", "bias_initializer": {"config": {}, "class_name": "Zeros"}, "kernel_size": [3, 3], "data_format": "channels_last", "dilation_rate": [8, 8], "use_bias": false, "trainable": true, "activation": "linear", "strides": [1, 1], "kernel_regularizer": null, "bias_regularizer": null, "padding": "same", "kernel_constraint": null, "activity_regularizer": null}, "class_name": "Conv2D", "inbound_nodes": [[["batch_normalization_13", 0, 0, {}]]]}, {"name": "activation_12", "config": {"activation": "relu", "trainable": true, "name": "activation_12"}, "class_name": "Activation", "inbound_nodes": [[["conv2d_13", 0, 0, {}]]]}, {"name": "activation_14", "config": {"activation": "relu", "trainable": true, "name": "activation_14"}, "class_name": "Activation", "inbound_nodes": [[["conv2d_15", 0, 0, {}]]]}, {"name": "batch_normalization_12", "config": {"axis": -1, "scale": false, "name": "batch_normalization_12", "beta_initializer": {"config": {}, "class_name": "Zeros"}, "moving_mean_initializer": {"config": {}, "class_name": "Zeros"}, "epsilon": 0.001, "gamma_initializer": {"config": {}, "class_name": "Ones"}, "trainable": true, "gamma_regularizer": null, "beta_constraint": null, "gamma_constraint": null, "center": false, "beta_regularizer": null, "moving_variance_initializer": {"config": {}, "class_name": "Ones"}, "momentum": 0.99}, "class_name": "BatchNormalization", "inbound_nodes": [[["activation_12", 0, 0, {}]]]}, {"name": "batch_normalization_14", "config": {"axis": -1, "scale": false, "name": "batch_normalization_14", "beta_initializer": {"config": {}, "class_name": "Zeros"}, "moving_mean_initializer": {"config": {}, "class_name": "Zeros"}, "epsilon": 0.001, "gamma_initializer": {"config": {}, "class_name": "Ones"}, "trainable": true, "gamma_regularizer": null, "beta_constraint": null, "gamma_constraint": null, "center": false, "beta_regularizer": null, "moving_variance_initializer": {"config": {}, "class_name": "Ones"}, "momentum": 0.99}, "class_name": "BatchNormalization", "inbound_nodes": [[["activation_14", 0, 0, {}]]]}, {"name": "add_6", "config": {"trainable": true, "name": "add_6"}, "class_name": "Add", "inbound_nodes": [[["batch_normalization_12", 0, 0, {}], ["add_5", 0, 0, {}]]]}, {"name": "add_7", "config": {"trainable": true, "name": "add_7"}, "class_name": "Add", "inbound_nodes": [[["batch_normalization_14", 0, 0, {}], ["add_5", 0, 0, {}]]]}, {"name": "conv2d_16", "config": {"bias_constraint": null, "kernel_initializer": {"config": {"distribution": "uniform", "scale": 1.0, "mode": "fan_avg", "seed": null}, "class_name": "VarianceScaling"}, "filters": 45, "name": "conv2d_16", "bias_initializer": {"config": {}, "class_name": "Zeros"}, "kernel_size": [3, 3], "data_format": "channels_last", "dilation_rate": [16, 16], "use_bias": false, "trainable": true, "activation": "linear", "strides": [1, 1], "kernel_regularizer": null, "bias_regularizer": null, "padding": "same", "kernel_constraint": null, "activity_regularizer": null}, "class_name": "Conv2D", "inbound_nodes": [[["add_6", 0, 0, {}]]]}, {"name": "conv2d_18", "config": {"bias_constraint": null, "kernel_initializer": {"config": {"distribution": "uniform", "scale": 1.0, "mode": "fan_avg", "seed": null}, "class_name": "VarianceScaling"}, "filters": 45, "name": "conv2d_18", "bias_initializer": {"config": {}, "class_name": "Zeros"}, "kernel_size": [3, 3], "data_format": "channels_last", "dilation_rate": [16, 16], "use_bias": false, "trainable": true, "activation": "linear", "strides": [1, 1], "kernel_regularizer": null, "bias_regularizer": null, "padding": "same", "kernel_constraint": null, "activity_regularizer": null}, "class_name": "Conv2D", "inbound_nodes": [[["add_7", 0, 0, {}]]]}, {"name": "batch_normalization_15", "config": {"axis": -1, "scale": false, "name": "batch_normalization_15", "beta_initializer": {"config": {}, "class_name": "Zeros"}, "moving_mean_initializer": {"config": {}, "class_name": "Zeros"}, "epsilon": 0.001, "gamma_initializer": {"config": {}, "class_name": "Ones"}, "trainable": true, "gamma_regularizer": null, "beta_constraint": null, "gamma_constraint": null, "center": false, "beta_regularizer": null, "moving_variance_initializer": {"config": {}, "class_name": "Ones"}, "momentum": 0.99}, "class_name": "BatchNormalization", "inbound_nodes": [[["conv2d_16", 0, 0, {}]]]}, {"name": "batch_normalization_16", "config": {"axis": -1, "scale": false, "name": "batch_normalization_16", "beta_initializer": {"config": {}, "class_name": "Zeros"}, "moving_mean_initializer": {"config": {}, "class_name": "Zeros"}, "epsilon": 0.001, "gamma_initializer": {"config": {}, "class_name": "Ones"}, "trainable": true, "gamma_regularizer": null, "beta_constraint": null, "gamma_constraint": null, "center": false, "beta_regularizer": null, "moving_variance_initializer": {"config": {}, "class_name": "Ones"}, "momentum": 0.99}, "class_name": "BatchNormalization", "inbound_nodes": [[["conv2d_18", 0, 0, {}]]]}, {"name": "global_average_pooling2d_1", "config": {"data_format": "channels_last", "trainable": true, "name": "global_average_pooling2d_1"}, "class_name": "GlobalAveragePooling2D", "inbound_nodes": [[["batch_normalization_15", 0, 0, {}]]]}, {"name": "global_max_pooling2d_1", "config": {"data_format": "channels_last", "trainable": true, "name": "global_max_pooling2d_1"}, "class_name": "GlobalMaxPooling2D", "inbound_nodes": [[["batch_normalization_15", 0, 0, {}]]]}, {"name": "global_average_pooling2d_3", "config": {"data_format": "channels_last", "trainable": true, "name": "global_average_pooling2d_3"}, "class_name": "GlobalAveragePooling2D", "inbound_nodes": [[["batch_normalization_16", 0, 0, {}]]]}, {"name": "global_max_pooling2d_2", "config": {"data_format": "channels_last", "trainable": true, "name": "global_max_pooling2d_2"}, "class_name": "GlobalMaxPooling2D", "inbound_nodes": [[["batch_normalization_16", 0, 0, {}]]]}, {"name": "reshape_1", "config": {"trainable": true, "name": "reshape_1", "target_shape": [1, 1, 45]}, "class_name": "Reshape", "inbound_nodes": [[["global_average_pooling2d_1", 0, 0, {}]]]}, {"name": "reshape_2", "config": {"trainable": true, "name": "reshape_2", "target_shape": [1, 1, 45]}, "class_name": "Reshape", "inbound_nodes": [[["global_max_pooling2d_1", 0, 0, {}]]]}, {"name": "reshape_3", "config": {"trainable": true, "name": "reshape_3", "target_shape": [1, 1, 45]}, "class_name": "Reshape", "inbound_nodes": [[["global_average_pooling2d_3", 0, 0, {}]]]}, {"name": "reshape_4", "config": {"trainable": true, "name": "reshape_4", "target_shape": [1, 1, 45]}, "class_name": "Reshape", "inbound_nodes": [[["global_max_pooling2d_2", 0, 0, {}]]]}, {"name": "dense_1", "config": {"units": 5, "bias_constraint": null, "kernel_initializer": {"config": {"distribution": "normal", "scale": 2.0, "mode": "fan_in", "seed": null}, "class_name": "VarianceScaling"}, "bias_initializer": {"config": {}, "class_name": "Zeros"}, "name": "dense_1", "use_bias": true, "activation": "relu", "kernel_regularizer": null, "trainable": true, "bias_regularizer": null, "activity_regularizer": null, "kernel_constraint": null}, "class_name": "Dense", "inbound_nodes": [[["reshape_1", 0, 0, {}]], [["reshape_2", 0, 0, {}]]]}, {"name": "dense_3", "config": {"units": 5, "bias_constraint": null, "kernel_initializer": {"config": {"distribution": "normal", "scale": 2.0, "mode": "fan_in", "seed": null}, "class_name": "VarianceScaling"}, "bias_initializer": {"config": {}, "class_name": "Zeros"}, "name": "dense_3", "use_bias": true, "activation": "relu", "kernel_regularizer": null, "trainable": true, "bias_regularizer": null, "activity_regularizer": null, "kernel_constraint": null}, "class_name": "Dense", "inbound_nodes": [[["reshape_3", 0, 0, {}]], [["reshape_4", 0, 0, {}]]]}, {"name": "dense_2", "config": {"units": 45, "bias_constraint": null, "kernel_initializer": {"config": {"distribution": "normal", "scale": 2.0, "mode": "fan_in", "seed": null}, "class_name": "VarianceScaling"}, "bias_initializer": {"config": {}, "class_name": "Zeros"}, "name": "dense_2", "use_bias": true, "activation": "linear", "kernel_regularizer": null, "trainable": true, "bias_regularizer": null, "activity_regularizer": null, "kernel_constraint": null}, "class_name": "Dense", "inbound_nodes": [[["dense_1", 0, 0, {}]], [["dense_1", 1, 0, {}]]]}, {"name": "dense_4", "config": {"units": 45, "bias_constraint": null, "kernel_initializer": {"config": {"distribution": "normal", "scale": 2.0, "mode": "fan_in", "seed": null}, "class_name": "VarianceScaling"}, "bias_initializer": {"config": {}, "class_name": "Zeros"}, "name": "dense_4", "use_bias": true, "activation": "linear", "kernel_regularizer": null, "trainable": true, "bias_regularizer": null, "activity_regularizer": null, "kernel_constraint": null}, "class_name": "Dense", "inbound_nodes": [[["dense_3", 0, 0, {}]], [["dense_3", 1, 0, {}]]]}, {"name": "add_8", "config": {"trainable": true, "name": "add_8"}, "class_name": "Add", "inbound_nodes": [[["dense_2", 0, 0, {}], ["dense_2", 1, 0, {}]]]}, {"name": "add_9", "config": {"trainable": true, "name": "add_9"}, "class_name": "Add", "inbound_nodes": [[["dense_4", 0, 0, {}], ["dense_4", 1, 0, {}]]]}, {"name": "activation_15", "config": {"activation": "sigmoid", "trainable": true, "name": "activation_15"}, "class_name": "Activation", "inbound_nodes": [[["add_8", 0, 0, {}]]]}, {"name": "activation_16", "config": {"activation": "sigmoid", "trainable": true, "name": "activation_16"}, "class_name": "Activation", "inbound_nodes": [[["add_9", 0, 0, {}]]]}, {"name": "multiply_1", "config": {"trainable": true, "name": "multiply_1"}, "class_name": "Multiply", "inbound_nodes": [[["batch_normalization_15", 0, 0, {}], ["activation_15", 0, 0, {}]]]}, {"name": "multiply_3", "config": {"trainable": true, "name": "multiply_3"}, "class_name": "Multiply", "inbound_nodes": [[["batch_normalization_16", 0, 0, {}], ["activation_16", 0, 0, {}]]]}, {"name": "lambda_1", "config": {"function_type": "lambda", "output_shape_type": "raw", "output_shape": null, "function": ["4wEAAAAAAAAAAQAAAAYAAABTAAAAcxkAAAB0AABqAQB8AABkAQBkAgBkAwBkBACDAQJTKQVO2gRh\neGlz6QMAAADaCGtlZXBkaW1zVCkC2gFL2gRtZWFuKQHaAXipAHIHAAAA+hwvaG9tZS9haXhpbi9L\nV1MvQ29kZS9DQkFNLnB52gg8bGFtYmRhPk8AAADzAAAAAA==\n", null, null], "name": "lambda_1", "arguments": {}, "trainable": true}, "class_name": "Lambda", "inbound_nodes": [[["multiply_1", 0, 0, {}]]]}, {"name": "lambda_2", "config": {"function_type": "lambda", "output_shape_type": "raw", "output_shape": null, "function": ["4wEAAAAAAAAAAQAAAAYAAABTAAAAcxkAAAB0AABqAQB8AABkAQBkAgBkAwBkBACDAQJTKQVO2gRh\neGlz6QMAAADaCGtlZXBkaW1zVCkC2gFL2gNtYXgpAdoBeKkAcgcAAAD6HC9ob21lL2FpeGluL0tX\nUy9Db2RlL0NCQU0ucHnaCDxsYW1iZGE+UQAAAPMAAAAA\n", null, null], "name": "lambda_2", "arguments": {}, "trainable": true}, "class_name": "Lambda", "inbound_nodes": [[["multiply_1", 0, 0, {}]]]}, {"name": "lambda_3", "config": {"function_type": "lambda", "output_shape_type": "raw", "output_shape": null, "function": ["4wEAAAAAAAAAAQAAAAYAAABTAAAAcxkAAAB0AABqAQB8AABkAQBkAgBkAwBkBACDAQJTKQVO2gRh\neGlz6QMAAADaCGtlZXBkaW1zVCkC2gFL2gRtZWFuKQHaAXipAHIHAAAA+hwvaG9tZS9haXhpbi9L\nV1MvQ29kZS9DQkFNLnB52gg8bGFtYmRhPk8AAADzAAAAAA==\n", null, null], "name": "lambda_3", "arguments": {}, "trainable": true}, "class_name": "Lambda", "inbound_nodes": [[["multiply_3", 0, 0, {}]]]}, {"name": "lambda_4", "config": {"function_type": "lambda", "output_shape_type": "raw", "output_shape": null, "function": ["4wEAAAAAAAAAAQAAAAYAAABTAAAAcxkAAAB0AABqAQB8AABkAQBkAgBkAwBkBACDAQJTKQVO2gRh\neGlz6QMAAADaCGtlZXBkaW1zVCkC2gFL2gNtYXgpAdoBeKkAcgcAAAD6HC9ob21lL2FpeGluL0tX\nUy9Db2RlL0NCQU0ucHnaCDxsYW1iZGE+UQAAAPMAAAAA\n", null, null], "name": "lambda_4", "arguments": {}, "trainable": true}, "class_name": "Lambda", "inbound_nodes": [[["multiply_3", 0, 0, {}]]]}, {"name": "concatenate_1", "config": {"axis": 3, "trainable": true, "name": "concatenate_1"}, "class_name": "Concatenate", "inbound_nodes": [[["lambda_1", 0, 0, {}], ["lambda_2", 0, 0, {}]]]}, {"name": "concatenate_2", "config": {"axis": 3, "trainable": true, "name": "concatenate_2"}, "class_name": "Concatenate", "inbound_nodes": [[["lambda_3", 0, 0, {}], ["lambda_4", 0, 0, {}]]]}, {"name": "conv2d_17", "config": {"bias_constraint": null, "kernel_initializer": {"config": {"distribution": "normal", "scale": 2.0, "mode": "fan_in", "seed": null}, "class_name": "VarianceScaling"}, "filters": 1, "name": "conv2d_17", "bias_initializer": {"config": {}, "class_name": "Zeros"}, "kernel_size": [7, 7], "data_format": "channels_last", "dilation_rate": [1, 1], "use_bias": false, "trainable": true, "activation": "sigmoid", "strides": [1, 1], "kernel_regularizer": null, "bias_regularizer": null, "padding": "same", "kernel_constraint": null, "activity_regularizer": null}, "class_name": "Conv2D", "inbound_nodes": [[["concatenate_1", 0, 0, {}]]]}, {"name": "conv2d_19", "config": {"bias_constraint": null, "kernel_initializer": {"config": {"distribution": "normal", "scale": 2.0, "mode": "fan_in", "seed": null}, "class_name": "VarianceScaling"}, "filters": 1, "name": "conv2d_19", "bias_initializer": {"config": {}, "class_name": "Zeros"}, "kernel_size": [7, 7], "data_format": "channels_last", "dilation_rate": [1, 1], "use_bias": false, "trainable": true, "activation": "sigmoid", "strides": [1, 1], "kernel_regularizer": null, "bias_regularizer": null, "padding": "same", "kernel_constraint": null, "activity_regularizer": null}, "class_name": "Conv2D", "inbound_nodes": [[["concatenate_2", 0, 0, {}]]]}, {"name": "multiply_2", "config": {"trainable": true, "name": "multiply_2"}, "class_name": "Multiply", "inbound_nodes": [[["multiply_1", 0, 0, {}], ["conv2d_17", 0, 0, {}]]]}, {"name": "multiply_4", "config": {"trainable": true, "name": "multiply_4"}, "class_name": "Multiply", "inbound_nodes": [[["multiply_3", 0, 0, {}], ["conv2d_19", 0, 0, {}]]]}, {"name": "global_average_pooling2d_2", "config": {"data_format": "channels_last", "trainable": true, "name": "global_average_pooling2d_2"}, "class_name": "GlobalAveragePooling2D", "inbound_nodes": [[["multiply_2", 0, 0, {}]]]}, {"name": "global_average_pooling2d_4", "config": {"data_format": "channels_last", "trainable": true, "name": "global_average_pooling2d_4"}, "class_name": "GlobalAveragePooling2D", "inbound_nodes": [[["multiply_4", 0, 0, {}]]]}, {"name": "dense_5", "config": {"units": 11, "bias_constraint": null, "kernel_initializer": {"config": {"distribution": "uniform", "scale": 1.0, "mode": "fan_avg", "seed": null}, "class_name": "VarianceScaling"}, "bias_initializer": {"config": {}, "class_name": "Zeros"}, "name": "dense_5", "use_bias": true, "activation": "linear", "kernel_regularizer": null, "trainable": true, "bias_regularizer": null, "activity_regularizer": null, "kernel_constraint": null}, "class_name": "Dense", "inbound_nodes": [[["global_average_pooling2d_2", 0, 0, {}]]]}, {"name": "dense_6", "config": {"units": 1, "bias_constraint": null, "kernel_initializer": {"config": {"distribution": "uniform", "scale": 1.0, "mode": "fan_avg", "seed": null}, "class_name": "VarianceScaling"}, "bias_initializer": {"config": {}, "class_name": "Zeros"}, "name": "dense_6", "use_bias": true, "activation": "linear", "kernel_regularizer": null, "trainable": true, "bias_regularizer": null, "activity_regularizer": null, "kernel_constraint": null}, "class_name": "Dense", "inbound_nodes": [[["global_average_pooling2d_4", 0, 0, {}]]]}, {"name": "keyword_spotting", "config": {"activation": "softmax", "trainable": true, "name": "keyword_spotting"}, "class_name": "Activation", "inbound_nodes": [[["dense_5", 0, 0, {}]]]}, {"name": "own_voice_detection", "config": {"activation": "sigmoid", "trainable": true, "name": "own_voice_detection"}, "class_name": "Activation", "inbound_nodes": [[["dense_6", 0, 0, {}]]]}], "input_layers": [["input_1", 0, 0]], "name": "model_1", "output_layers": [["keyword_spotting", 0, 0], ["own_voice_detection", 0, 0]]}, "class_name": "Model", "keras_version": "2.1.5"}